others/best_model.pt (torch, 75759 bytes, 6 tensors)

cnn1.weight f4 [16, 1, 5, 5]
00000000: 3bcc 543e 107c 443e 06be 91bd 7d9d 9abe
00000010: 79eb 16be 7ffd b1bc 327d 363e b48d e33d
00000020: 8b76 37be 015c b2be 44b5 103d 846b d73e
00000030: 369f 6a3d a06d 26bd 0292 c5be 722a 49be
00000040: 7dbd f83e b11d 113f 3f0f 3abe 2955 0abe
00000050: 30aa fbbe 70e9 93bc 7d26 093f bba1 9f3e
00000060: e8aa 973e 15f2 a1bd 314f a8bd 68c6 a33e
00000070: a2c9 49bd 524d d13d 4650 dc3c 7b95 c53e
00000080: 7f86 8c3e 91fc b2be 9b65 52be b6ec 4f3e
00000090: 5049 be3e 411e 23be ca33 95be 3cbf a9be
000000a0: 121f 4fbc 4421 733e b936 a0bd 3186 60be
000000b0: bc88 753d c919 623e 9869 953d 3282 51be
000000c0: 78f8 4ebd 514f c43d 2e2d 7d3e 96d5 ac3e
000000d0: 2209 8c3e a75a 4bbd 9dd9 7abe 7fd0 b13d
000000e0: d54c 913e 6838 3c3e c3d5 f5bd b8a5 b83c
000000f0: 36e1 643e ff3f 813e 3ad6 4fbe 6170 96be
00000100: 1874 0b3d f3a8 6e3e 021c 09be fdb4 2ebe
00000110: 6240 05be 1ee4 3cbe 73b2 2e3e 427d 20be
00000120: ab56 21be ae3f 8fbe e85c 8fbe 5fc1 f43d
00000130: d8ba c33e 2474 f23e 5025 093f 36fa 843e
00000140: 8606 413e 9096 5d3e 320f 5d3b 640e d63c
00000150: 9432 adbd a5cd 08be 6f8c a0be f915 e63c
00000160: 40ab 83be 1f5c 3abd f64a 3abe 546b 87be
00000170: a587 73be e404 43be d744 05bd 38f7 0b3e
00000180: 8f5d d5bd 4aa0 2cbe c15f 94bc 3205 0d3e
00000190: dfe3 af3d 37de f23d b02c ab3e eacd 9cbd
000001a0: bb7b 02bd 6165 a8be c6db 8f3e 706a 8d3e
000001b0: a41d cb3d 85c5 a0be cd48 70be ab24 763e
000001c0: 00aa 9e3e 59e4 a1bd 685d 91be d6c0 a2be
000001d0: 12f7 a93e 4a4e c23e c4f2 04be e0aa b7bd
000001e0: 3d1c 1fbe 9b10 8b3d 1214 7f3e d18a 7b3d
000001f0: ad33 873c cadc b0bc 867f b7bd 8c15 8c3d
00000200: 8b98 36be e836 4ebb 0947 1bbe 5cf0 a4be
00000210: 7709 2f3e f286 d23d ebb9 0b3e ba6c c2be
00000220: d86d 1bbb 5809 b63e 9795 263e 2c5a 34be
00000230: 9271 533e 3190 1d3f c375 523e f859 bdbe
00000240: 885f 933d a204 3d3e 01f3 e3bd 4b64 aebe
00000250: 30a4 29be ab4e e23d 134f d0bc f18b 033d
00000260: 1c5b 5e3d 089c a03e 3a75 903e 934d 743e
00000270: c4c8 aa3d 2f81 3c3e f378 673e 6398 183e
00000280: d290 473e 4750 6b3e 536c 033e e9a5 cebd
00000290: 5c94 19be 5686 0c3e 526f fabd 68b0 2cbe
000002a0: 374f acbd e738 cebd 7ab4 8ebe a565 b9be
000002b0: b141 d1be ce40 bbbe 3ca5 63be 919c 133e
000002c0: 0aec a63e 3590 1e3e 433c 9e3d 5cfc 86be
000002d0: 9f83 a63d 46ec 763e decf c93e 697c 333f
000002e0: c50b f63e 93a1 61be 229a fa3d dc9c 0abb
000002f0: 6e5b 4b3e e5b3 123f 5639 eebe 34e9 54be
00000300: fce6 2cbe 58c0 aabe 4aee c6bd 391e 90be
00000310: b3f7 cfbe 6381 e4be 11ee c5be bf4e adbd
00000320: 6af5 24be e584 77be 353e 80be 2f32 36be
00000330: 945e 09be 0c5e 45be ae42 2fbe f37c 5cbe
00000340: 2f18 a0be 9626 81be e377 f0bd 0db3 94be
00000350: a7b1 6dbe b861 edbd b58e 5fbe fc16 b03e
00000360: a947 f03d 08c2 823e 6b89 3d3e 8016 103e
00000370: 68a4 513e 8b18 e23e 1a16 1e3e c726 c23d
00000380: 36c3 233e a399 5c3e 0a90 8f3e 2fbc 46bd
00000390: 881e 43be 9e98 593d 2c68 283e 533d 933e
000003a0: 82ad 95be 8b0d 8dbe c83c d73d 1729 6d3e
000003b0: b59a b03e 42e0 46be ded4 b03c 0748 87be
000003c0: 59d8 0a3e 4044 aa3e 31a3 62be 0c93 1bbd
000003d0: 659b 90bc ffaf 8c3e 1e90 733e 008a f7bc
000003e0: 6deb 873a 85b7 9e3d f91f 1ebe da3d a33d
000003f0: a2fd 043d 3db5 2ebd 0d82 ccbd bbe4 52be
0.20781033 0.19187951 -0.07116322 -0.3019828 -0.14738263 -0.021727322 0.17821196 0.11111012
-0.17916314 -0.34835818 0.03532912 0.42074215 0.05728074 -0.04063189 -0.38587958 -0.19645098
0.48582068 0.5668593 -0.18169878 -0.13509049 -0.4915328 -0.018055648 0.53574353 0.31178078
0.2962258 -0.079075016 -0.082182296 0.3198731 -0.049264558 0.10219826 0.026893746 0.38590607
0.27446362 -0.34958318 -0.20546572 0.20305142 0.37165308 -0.1592951 -0.29141074 -0.33153713
-0.012641685 0.23743159 -0.078229375 -0.2192619 0.059944853 0.22080149 0.07295531 -0.20459822
-0.050529927 0.09585441 0.24724266 0.33756703 0.27350718 -0.049647 -0.24497075 0.086823456
0.2837893 0.18380892 -0.120036624 0.022539958 0.22351536 0.25244138 -0.20296565 -0.29382613
0.034046263 0.23306637 -0.1338959 -0.17061229 -0.13012841 -0.18446395 0.1706026 -0.15672782
-0.15755717 -0.2797827 -0.2800057 0.11950945 0.38228488 0.47354233 0.5357256 0.25972146
0.18850145 0.21639466 0.003373098 0.026129909 -0.08456913 -0.13359697 -0.31357142 0.02808665
-0.2571659 -0.04549801 -0.18192658 -0.26449072 -0.23782213 -0.19044834 -0.032536354 0.13668525
-0.104182355 -0.1685802 -0.018112065 0.13771513 0.08588385 0.1185879 0.3343253 -0.076564625
-0.03185628 -0.32889846 0.2809736 0.27620268 0.09917763 -0.31400695 -0.23465271 0.24037425
0.30989075 -0.07904882 -0.28391576 -0.31787747 0.33196312 0.37950355 -0.12983233 -0.08968139
-0.15538116 0.067902766 0.2491 0.061411683 0.016504133 -0.021589655 -0.0895987 0.06840047
-0.17831628 -0.0031465832 -0.15163817 -0.3221463 0.17093454 0.10279645 0.13645141 -0.37973577
-0.0023716595 0.35554004 0.16268001 -0.17612523 0.20648792 0.61548144 0.20552735 -0.36982703
0.071959555 0.18458799 -0.11130334 -0.34060892 -0.16566539 0.11050161 -0.02542833 0.03211588
0.054286107 0.31369042 0.28214437 0.23857717 0.08339074 0.18408655 0.22604732 0.14901881
0.19488838 0.22979842 0.12834291 -0.100902386 -0.14998001 0.1372312 -0.12228264 -0.16864169
-0.084135465 -0.10069447 -0.27872068 -0.3621036 -0.4087043 -0.3657288 -0.22231 0.14415194
0.3260196 0.15484698 0.07726338 -0.2636441 0.081305735 0.24113569 0.39416403 0.7011171
0.48055854 -0.22034292 0.1223643 -0.0021150624 0.19859096 0.5730575 -0.4652812 -0.20792085
-0.16884989 -0.33349872 -0.09713419 -0.28148058 -0.40618667 -0.44629964 -0.38658193 -0.08462285
-0.16109243 -0.24171789 -0.2504746 -0.17792581 -0.13414985 -0.19274157 -0.1711528 -0.2153204
-0.3126845 -0.2522475 -0.117416166 -0.29042855 -0.232123 -0.11590904 -0.21831782 0.34392536
0.11732418 0.2553866 0.18509452 0.14071083 0.20472872 0.4415935 0.15438119 0.094800524
0.15992436 0.21542983 0.2803958 -0.04851931 -0.19054615 0.053124063 0.16445988 0.28757724
-0.29233938 -0.27549395 0.1050964 0.23160206 0.34493032 -0.19421485 0.021585878 -0.2642214
0.13559093 0.33255196 -0.22132565 -0.03798203 -0.017652223 0.27478024 0.23785445 -0.03021717
0.0010369845 0.07749847 -0.15441884 0.079707816 0.032468446 -0.04265331 -0.09985743 -0.20595066

cnn1.bias f4 [16]
00000000: f4a2 0b3e 7ffa a03d 074f b3bd 4801 913e
00000010: 15cf ac3d a55e 89bd 846b 13bd b6bb bc3d
00000020: e0bc 2cbe e91a 2f3e 18db 5b3e ec74 54bb
00000030: 8819 7ebd 997c 743e 1f3d 663c fbf8 fdbd
0.1363638 0.07860278 -0.08755308 0.2832129 0.08437935 -0.06707505 -0.035991207 0.092154905
-0.16868925 0.17100109 0.21470296 -0.0032418324 -0.062036067 0.23875655 0.014052658 -0.12401005

cnn2.weight f4 [32, 16, 5, 5]
00000000: f609 36bd 47ec e9bc c262 5dbb 46b9 09bb
00000010: c338 093b 6de0 bc3c a4c4 ba3b d4f4 473d
00000020: 97a1 033e ca4d 4a3d acf0 813a cb83 27bd
00000030: 79fa 863b b978 a63d 2533 9d3d 9e36 66bd
00000040: 938a 583d f42b 513c 71af 5a3d 6fe5 6b3e
00000050: 59a9 cfbd f039 01bd 8dd0 28bd aa63 853b
00000060: 2c1b 823d b1f8 e43c adde 3e3d ac62 433c
00000070: 25d7 eabb eeb3 923c 5044 51bd 23ee 2a3d
00000080: 752d 00bb c6fb 353d 9fa1 fc3d d534 443a
00000090: 91bf ac3c cf72 bcbb d993 353d 428e 133e
000000a0: 27d9 70bd 8190 97bd dd31 ba3a 18cf 503c
000000b0: 28a4 363d ce40 ca3c 73ec 98bd 9b53 3dbb
000000c0: cc36 38bd ad9e c03d 25ab 393c 037d ea3c
000000d0: 1aee b23c 440a 8cbc 69c3 68bd b3d9 b43c
000000e0: e4bb cd3c ff14 b5bd 64de eabc f769 993d
000000f0: f9d6 6ebc 60d5 19bd 86c2 e3bd fecd c83c
00000100: 53b2 6f3c 7ba5 c43b c062 47bd f044 d7bd
00000110: f728 123d 4891 19bc 1870 e6bb 47de 73bd
00000120: 32fc ddbd d0ff c53b e2f2 33bd 892c f3bb
00000130: 392b b03d bddb e63b 8d73 32bd 590c c4bd
00000140: 8591 16bc 4455 7a3c f91d 203d 6424 133d
00000150: 78de 0d3d 5ccb e83b 1278 b5bd 5d83 26bd
00000160: 11a9 b9bd 0c43 97bc 8c04 2cbb 4bc8 0abd
00000170: 2b18 b2bd e7e9 05bd d72c 10be ebab 733d
00000180: 2758 79bd b0cc acbc 730f 08be a208 78bd
00000190: d720 603c 1bf5 2dbd 96ce 8cbb a520 5e3d
000001a0: 06f7 bbbc 3c8d e93c b980 42bd 92f5 dd3c
000001b0: a052 cf3d 2e25 943b ee38 a2bb 66b2 083d
000001c0: 18a3 193c f74e e93d 27c9 fd3d 356b 7a3b
000001d0: 3477 6bbc a0b3 0d3d e633 dc3d e863 1d3e
000001e0: fff4 5bbd 985c b2bd 0987 813c 67b3 613d
000001f0: 7d8c 043e d724 2b3c 9725 773b 3dbe f8bb
00000200: c106 883c 7a8e 74bb 2c69 0abd a0d8 82bd
00000210: e16d 34bd 03b5 11bd 244b e83b b5b0 263b
00000220: 5750 97bd 594b 8bbd ff65 b1bd f008 8abd
00000230: 3887 2c3d 2f80 3dbd 70c1 9bbd ca2b 47bd
00000240: 2de2 3d3d 7cdb 1cbd f390 a5bc 8b51 5cbd
00000250: 0fd1 8cbc b542 9a3d ba60 1b3d 083a b23d
00000260: b4c9 33bc 7eba 01bd 4fc1 79bd 018f 9f3d
00000270: 8d7a 633d 13e1 5cbb 8185 7bbd 08c1 ab3c
00000280: bd8f 363c f9ab 2ebd aae3 9bbd b1c2 02bd
00000290: 2f2f cfbc 76bf e83b 2112 2fbc d911 81ba
000002a0: 2f0b 2fbd 6ca9 8abd 77e4 5fbc ee88 6bbd
000002b0: 6654 cabd ed9e 51bd 4628 92bd 480c 0a3d
000002c0: e04f cc3d 450e 653d ef93 5f3d 53b8 f33b
000002d0: c103 5d3c 1bae 84bc 7403 ba3c 106c 45bb
000002e0: 7d6b bd3c 2396 ecba 4314 403d d049 083d
000002f0: 7581 e8bc aff5 a1bd b24f 3dbc f00c 12bd
00000300: 2bb7 0ebd e86d 04bd 929f c0bd 1420 eabc
00000310: 9276 dabc 9359 04bd e366 9d3b e77a 14bd
00000320: 3b59 113c 18d7 5dbd da7c fcbc d431 2bbd
00000330: 834e 303b e459 b63c f62f 5b3c eb94 9b3c
00000340: c7e8 553c 964e 03bd cb71 8d3d 17d0 df3c
00000350: fc7c 29bd 13d3 87bc 5b08 5fbc 5b2a 7e3d
00000360: 9551 023d dda0 893c 671e 5cbc e309 c9bc
00000370: ac89 1c3d 53e8 5a3d dd3e ad3c 0649 723b
00000380: cdb8 f93c b95d 303c 08e9 45bd 4842 74bd
00000390: 3ed3 9eba df14 0cbd 24e2 babc 29c5 70bc
000003a0: 49fa a53c 69f7 663d 438c 0f3d 3790 013d
000003b0: dfb9 5f3b c872 b33b e11c 3f3d ddf9 af3d
000003c0: d7ce e1bc bd1d b9bc 2ee5 23bd 825d 573d
000003d0: 21f4 ac3d 44a9 5ebd c651 7bbd 9fa1 f7bc
000003e0: 87a9 71bd 84c4 b63d 5a8a 043d b70c 0abd
000003f0: b3e6 07bd ac13 71bd 76da 123c fc61 f93b
-0.044443093 -0.028555049 -0.0033780788 -0.0021014973 0.0020938374 0.023056233 0.005699711 0.04881747
0.1285461 0.04939059 0.0009913645 -0.040897172 0.004119214 0.08128495 0.07675771 -0.05620443
0.05286653 0.012766827 0.05338997 0.2303674 -0.101397224 -0.031549394 -0.041214515 0.004070719
0.06352839 0.027950617 0.04659908 0.011925381 -0.0071667605 0.017908063 -0.05109054 0.04173101
-0.0019558345 0.044429563 0.12335514 0.0007484679 0.02108744 -0.005750991 0.04433045 0.14409736
-0.058800843 -0.07400609 0.0014205534 0.0127446875 0.044590145 0.024689104 -0.07466974 -0.0028888944
-0.044974133 0.09405265 0.011332308 0.028624063 0.021842051 -0.017094739 -0.056826983 0.022076463
0.025114007 -0.08841895 -0.028670497 0.07490914 -0.014577621 -0.037557006 -0.11121087 0.024512287
0.014629918 0.006001172 -0.04867816 -0.10511196 0.0356836 -0.009373017 -0.0070324056 -0.059538152
-0.10839118 0.006042458 -0.043932803 -0.0074210805 0.08601994 0.007045238 -0.04356723 -0.09572668
-0.009189968 0.015279118 0.039091084 0.035923377 0.03463599 0.0071043205 -0.08860792 -0.04065262
-0.0906545 -0.018464588 -0.0026247827 -0.03388242 -0.08696016 -0.03269377 -0.14079605 0.059490126
-0.060875084 -0.021093696 -0.13287143 -0.060555108 0.013679705 -0.04247008 -0.004297088 0.05423035
-0.022944938 0.028509729 -0.04748604 0.027094636 0.10123181 0.0045210337 -0.004950634 0.03337326
0.0093772635 0.113920145 0.123918824 0.0038210873 -0.014371682 0.034595132 0.10752086 0.15370142
-0.053700443 -0.08709067 0.01581146 0.055102732 0.12944217 0.010445795 0.0037711614 -0.0075910375
0.016604783 -0.0037316368 -0.033791706 -0.06388974 -0.0440501 -0.035573017 0.0070890356 0.0025434915
-0.073883705 -0.06801481 -0.08662032 -0.06739986 0.042121142 -0.046264824 -0.07605255 -0.048625745
0.046358276 -0.038295254 -0.020210719 -0.053788703 -0.01718953 0.075322546 0.037934043 0.08702475
-0.010973383 -0.031671993 -0.06097537 0.07790948 0.055536795 -0.003370349 -0.061406616 0.020966068
0.011142668 -0.042644475 -0.07611783 -0.031923953 -0.025291054 0.007102902 -0.010685475 -0.0009847238
-0.042735275 -0.06770596 -0.01366531 -0.057503633 -0.09879379 -0.051176954 -0.07136588 0.03370312
0.099761724 0.05592181 0.05458444 0.0074377446 0.0134896645 -0.016196301 0.022706725 -0.0030124225
0.023122543 -0.0018050115 0.046894323 0.033273518 -0.028382042 -0.079081886 -0.011554645 -0.03565687
-0.03484265 -0.032331377 -0.094054356 -0.02857975 -0.026667867 -0.032311987 0.004803525 -0.03625002
0.008871372 -0.054160208 -0.030821253 -0.041795567 0.0026902265 0.02225966 0.013378134 0.018991908
0.013055987 -0.032057367 0.0690647 0.027320905 -0.04137896 -0.01658014 -0.013612832 0.062052112
0.031816084 0.016800338 -0.013434983 -0.024540847 0.03821723 0.053444218 0.02114814 0.0036969795
0.030483628 0.010764533 -0.04831794 -0.059633523 -0.0012117398 -0.03419959 -0.02281291 -0.014695444
0.020260947 0.056388292 0.035045873 0.031631675 0.0034137887 0.0054763295 0.0466584 0.085925795
-0.02756445 -0.022597188 -0.040013485 0.05257941 0.084450014 -0.054360643 -0.061357282 -0.030228434
-0.058999564 0.08924201 0.032358505 -0.033703532 -0.033178996 -0.05885665 0.008963218 0.0076105576

cnn2.bias f4 [32]
00000000: 03b9 efbc ccfc 6a3c 37ae 193d 77d3 93bd
00000010: 361b 0a3d 8301 183a 42fa 1f3d ffe2 8ebc
00000020: 863a 7bbd c676 c4bc cb0d 03bd e72b f83c
00000030: dce3 dd3c e890 88bd 3e07 1ebd 38b7 8fbd
00000040: 310a ecbc 32fb 863b 0b15 2abd 013e 82bc
00000050: d610 22bd 8d8c 52bd 7681 903c 8f32 663c
00000060: 5c04 27bc 0ce8 283c cc33 4d3c 1d5d 16bd
00000070: 50d4 863c e013 1ebc 37d7 5c3d ead2 3dbd
-0.029263025 0.014342498 0.03751966 -0.07218068 0.033717357 0.0005798565 0.039057024 -0.017442225
-0.06133511 -0.023982417 -0.031995576 0.030294372 0.02708619 -0.06668264 -0.038581125 -0.07017368
-0.028813453 0.0041193003 -0.041523974 -0.015898706 -0.039566837 -0.05140357 0.017639857 0.01405014
-0.01019391 0.010309231 0.012524556 -0.036709893 0.01645866 -0.009648293 0.053916182 -0.04634372

fc1.weight f4 [10, 512]
00000000: 2df3 a3bc 9bcf 9bbd 3a06 993c b993 983d
00000010: 9044 053d 93be 82bd 7ffd edb9 b10e a53d
00000020: 2c07 04bc 798b eebc 3ac0 34bd 2540 cabc
00000030: f315 eb3d bef4 98bd 82db 1fbd 3eb3 e2bb
00000040: 7927 57bd c5c1 fbbb 9c42 92bd 454a 513d
00000050: c8ca 3abd d8e0 ac3d f1ef c7bd e02d 993d
00000060: 0431 ce3c 34f9 d0bc f5fd 56bc 7d64 123e
00000070: 9837 0fbc 1f71 10bd ea37 ce3d de83 973d
00000080: 9946 2a3d f78e 0c3e c1d4 733c 2b8e a1bd
00000090: 28c6 48bd be15 d3bc 500e 99bd f2d1 68bd
000000a0: 2259 a5bd e250 2dbd 2266 87bd e1b6 25bd
000000b0: 1f26 45bd 1f89 ddbc 7361 5ebd b8cc 913d
000000c0: 64fd b0bd 2674 0ebc cbb3 c4b9 e657 8ebd
000000d0: 6ae2 833d f236 5dbd e533 7cbd af8b aebd
000000e0: 8246 cb3c 6627 23be 209d 17be b4cd aebc
000000f0: edd6 d73d fba5 713c ed74 e63c b386 623d
00000100: 055b 203c 72fd 0cbd 10eb bc3c 98de 093d
00000110: c01d 173d d0cf 9f3d fb55 583d 4c8d 873d
00000120: e68e 403c db0e 083d 240a 7abd 9c7c 04be
00000130: cce1 333d 70ab c23d 68e0 703d 1f7f 9fbd
00000140: 064d 90bd 88ce 2e3c 9243 89bd d02f 33bd
00000150: 0d3b c43b 47d8 483c 5a7a 98bd 9904 ecbd
00000160: 701b 963d a1f8 313d fe6a d0bd d465 8c3b
00000170: 89ef 87bd 83ce c7bd 8c9f a6bd 97ca 403d
00000180: 38c2 3abc a6c7 05bd f4ec 67bc 68a8 9a39
00000190: 15eb d63d aacf 243d aeeb c13d d460 d23c
000001a0: 5b22 463d 58e0 b53c ee0d 7c3d 65da f8bc
000001b0: 55cf 013d 366c ffba 4ac4 0abe 924d babd
000001c0: 1827 22bd 02f5 30bd 1f0d e2bd f706 f0bd
000001d0: c910 14be f6aa 02be e716 3c3d 0284 dbbd
000001e0: 3e59 0abe e29c 9fbb 9dda 403d edd2 343e
000001f0: 19d9 1ebd 3c18 0a3e b5f9 283e 7713 493e
00000200: 1c7f 313d 49d7 643d d9c4 043e 8c33 433e
00000210: 6038 7dbc b5e1 7fbd 4d59 b53c 48e2 073c
00000220: 132b dfbc d14b 8cbd ca05 c4bd ddb9 29be
00000230: addd 3bbc ea22 173e ad72 283c d259 3dbe
00000240: f6f0 2bbd 7fda 61bc b825 8dbc 6799 02bd
00000250: bd15 353d b99a a33c 0559 c33c 268b e83c
00000260: 09e2 0cbc 5ff2 c3bc d7fe ca3c cfe9 3bbd
00000270: 0ee8 3cbd a4f0 763d f8f1 c2bd bbda febd
00000280: 629d 9e3d 8631 fa3d 57ce 053e b350 36bd
00000290: 9e8f cd3d 84f2 863d e5dd 92bd e155 bcbd
000002a0: 0773 b7bc 9ab4 fd3c 0874 90bd 145f 93bd
000002b0: ce57 cbbd 97ec febc f72f 9fbc f9ba 67bd
000002c0: 9e52 3e3d c27d 883d 499d 05be e28b 753c
000002d0: b601 2d3d 223d b33b b706 0a3d 88bf 403e
000002e0: 9bc5 743d 7ca5 53be 782e 603d 8f43 ce3d
000002f0: e236 923b 0233 a2bc 6723 a1ba bee3 103c
00000300: 307b d0bd a52b c9bc 9ff8 35ba 4c0e d13c
00000310: 8d40 c6bd 6945 a0bd a77c 293e d702 043e
00000320: ebaa 6cbe 76ea d9bd b1d6 de3d 9011 f63d
00000330: 2f4a 54bb af61 673d ee51 803d 70a1 a9bc
00000340: 56a8 7abd 3e2d 9a3c 2070 783c e568 cbbc
00000350: 8b86 5b3c 3897 15be cb9a 6ebd eed4 c03c
00000360: cdec 0abe 8cdf 1cbe 6496 bebd 902f cfbd
00000370: 0548 2f3d ef84 0dbd 03e2 013d 49ce 8e3d
00000380: 771d ad3d 9eb5 9c3c 12e0 ecbc 93c2 96bb
00000390: 1516 c63d 0541 a93d 6841 4f3d 5154 913c
000003a0: a21a 133e 5fac 4fbc ccc4 1c3c 98de e13c
000003b0: c96e f1bb 5582 fabd 346a 25be 0d64 efbb
000003c0: 318a d7bc c652 393d cf0b 073c edad 84bc
000003d0: b941 353d 3d19 cb3d a05d 27be cb12 2bbc
000003e0: 823b 953d b8d4 98bd 06c7 03bd 2b5a 313d
000003f0: 9f7e 90bc 6c23 b13d cccf 363c e994 af3d
-0.020013416 -0.07607957 0.018679727 0.07450051 0.03253609 -0.063840054 -0.00045393032 0.08059443
-0.0080583505 -0.02911924 -0.044128634 -0.02468879 0.11478796 -0.07468556 -0.0390277 -0.00691834
-0.05252788 -0.0076830112 -0.07141611 0.05109622 -0.045603544 0.08441323 -0.09762562 0.07479453
0.025169857 -0.025509454 -0.0131220715 0.14296146 -0.008741282 -0.03526413 0.100692585 0.073981985
0.041571233 0.13726412 0.014882267 -0.078884445 -0.0490171 -0.025767203 -0.07473433 -0.056840844
-0.08073641 -0.042313464 -0.06611277 -0.04045761 -0.04813206 -0.027042923 -0.054292154 0.07119125
-0.086420804 -0.008694684 -0.0003751799 -0.06950359 0.064396694 -0.054007478 -0.061572928 -0.08522736
0.024813894 -0.15932998 -0.14806032 -0.021338321 0.10539041 0.0147490455 0.028131926 0.05530424
0.009787326 -0.03442139 0.023061305 0.033659548 0.036893606 0.07803309 0.052816372 0.06618747
0.01175282 0.033217292 -0.061044827 -0.1293816 0.04391651 0.09505355 0.05880776 -0.07787918
-0.07045941 0.010669358 -0.06702341 -0.04374677 0.0059884847 0.012258596 -0.07445212 -0.115243144
0.07329452 0.04345 -0.10176657 0.0042846 -0.066374846 -0.09756186 -0.081359 0.047068205
-0.011398844 -0.032661103 -0.014155615 0.0002949864 0.10494057 0.040237106 0.094687805 0.025680937
0.048372608 0.022201702 0.061536722 -0.030377576 0.031691868 -0.0019487205 -0.13551441 -0.090968266
-0.039588064 -0.043202408 -0.11037659 -0.117200784 -0.14459528 -0.12760529 0.04592028 -0.10718538
-0.13510606 -0.004870997 0.047083486 0.17658587 -0.03878126 0.13485807 0.16501506 0.19636331
0.04333411 0.055869374 0.12965716 0.19062632 -0.015455335 -0.06247111 0.022137308 0.008293696
-0.02724222 -0.06850398 -0.09571417 -0.16574807 -0.011466426 0.14759412 0.010281247 -0.18491295
-0.041977845 -0.013785004 -0.0172299 -0.031884577 0.044210184 0.019971238 0.023846159 0.028386664
-0.008598813 -0.023919282 0.02477972 -0.045877274 -0.046119742 0.060288087 -0.09518808 -0.12444063
0.07744862 0.12216477 0.13066994 -0.044510555 0.100371584 0.06589225 -0.07171229 -0.091960676
-0.022393716 0.030969907 -0.07053381 -0.07195869 -0.09928857 -0.031118674 -0.019432051 -0.056574795
0.04646551 0.066646114 -0.13048281 0.014986964 0.04223796 0.005469934 0.03369781 0.18823063
0.059758764 -0.20668596 0.054731816 0.100714795 0.004462109 -0.019799713 -0.0012293876 0.0088433605
-0.10179746 -0.024556944 -0.00069416495 0.025519513 -0.09680281 -0.07825739 0.16551457 0.12891708
-0.23112075 -0.10640423 0.10880793 0.120150685 -0.003239285 0.056489643 0.06265627 -0.020706862
-0.061195694 0.018820401 0.015163451 -0.024830291 0.013398777 -0.14608467 -0.05825309 0.023539033
-0.13566895 -0.15319651 -0.093060285 -0.10116494 0.042793293 -0.034550603 0.031709682 0.069729395
0.084528856 0.01912957 -0.028915439 -0.004600832 0.096721806 0.082643546 0.050599486 0.0177404
0.14365628 -0.012675374 0.009568404 0.027571961 -0.007367943 -0.1223189 -0.16153795 -0.007305628
-0.026311012 0.045244955 0.0082425615 -0.016196216 0.04425213 0.09916923 -0.16344309 -0.010441492
0.07286741 -0.07462448 -0.032172225 0.04329888 -0.017638503 0.08649334 0.011157941 0.08573324

fc1.bias f4 [10]
00000000: 84f1 c7bc ef1a 8e3d fada 1abd d2fd 1dbd
00000010: 62e8 873c 4909 e23b 795e 8cbc c237 b0bc
00000020: 3291 753d 235a 83bd
-0.024407156 0.06938731 -0.03780649 -0.03857214 0.016590301 0.0068980795 -0.017134892 -0.021510962
0.059952922 -0.064136766
