others/best_model.pt (torch, 75759 bytes, 6 tensors)

cnn1.weight f4 [16, 1, 5, 5]
-0.2729607 -0.24377544 -0.20126665 -0.16025198 -0.11144922 0.010232873 -0.14484163 -0.21044284
0.058653083 0.016988197 0.25206652 0.065962285 0.0034564477 0.11548975 -0.032669876 0.18370895
0.25735232 0.22102706 -0.11538646 -0.053371817 -0.15358749 0.084764175 -0.0638422 0.22183405
0.24737887 -0.0841166 -0.06575839 -0.24274409 -0.23199366 -0.19884215 -0.07809016 -0.17296615
-0.058804 -0.053572737 -0.086206496 -0.17709754 -0.11234347 -0.115064666 -0.06610984 -0.043517746
0.13082525 0.09245044 -0.006327072 0.27513942 0.03729962 0.0691441 0.1863664 0.27620822
0.025530888 0.19069076 -0.046858877 -0.22945742 -0.13736108 0.3839802 0.051697336 0.16602722
-0.10861985 -0.14591905 0.4510542 0.46035808 0.2267901 0.22526997 -0.17619985 0.16447231
0.47224495 -0.23075336 -0.09904048 -0.287774 -0.14272898 0.20780036 -0.06691112 -0.33067667
-0.46451446 -0.37108335 -0.092755474 0.28293824 -0.21289204 -0.28905448 -0.16498816 -0.20486204
0.2655694 0.13151342 -0.13234653 -0.25351903 -0.40072647 0.20950939 0.51587135 0.30158055
-0.05003373 0.08214206 -0.14632307 0.3260253 0.502276 -0.013715747 0.020611385 -0.22786133
-0.09087209 0.27169687 0.2629159 -0.13591836 0.24451564 -0.1261174 -0.17920482 -0.06605535
0.17677225 -0.09021756 -0.44935408 -0.14037234 0.35870305 0.33890048 -0.2392867 0.14479567
0.7110864 0.49589005 -0.020388126 0.09270353 0.398242 0.3044697 -0.33242625 -0.60760725
0.11877321 -0.08693349 -0.37219924 -0.21367048 -0.08968641 -0.11821002 -0.26266786 -0.45984757
0.03642077 0.17667125 -0.28766358 -0.28209063 -0.3333127 0.17205237 0.5065318 -0.45766586
-0.23377116 0.10109946 0.40279084 0.38082907 -0.34515825 -0.18184699 0.3861164 0.48070487
-0.039438173 -0.017396705 -0.10101109 0.27770486 0.23650728 0.018373447 0.04503312 0.10265477
-0.22209916 0.16274087 0.20967792 0.13659774 -0.026374754 -0.29148382 0.33863008 0.034070227
-0.2329047 -0.28210887 -0.06091283 0.41123596 -0.16494133 -0.24300419 0.06452176 0.4757721
0.27656746 -0.11354041 0.1712758 0.22791077 0.11527541 -0.24795048 -0.20756795 0.086583786
-0.1620519 0.10643229 -0.23431836 -0.12508942 -0.20945042 -0.365515 -0.32513607 -0.058518935
-0.207584 -0.12091889 0.019291745 0.04875753 0.1165751 0.14151381 0.41505384 0.44504452
0.49270374 0.43766597 0.3743726 0.09970433 -0.05729936 -0.28935355 -0.30552492 -0.1814976
0.10035245 0.17657281 -0.2966039 -0.2567427 0.1588185 0.17340787 0.04495038 -0.0893112
-0.16817683 0.10359004 0.27759463 0.12328246 -0.2499993 -0.30684283 0.03882156 0.11322238
0.37090304 -0.041633565 0.11579885 -0.20434824 -0.2056434 0.2407483 -0.04958391 0.17927185
-0.13754499 -0.14981763 0.028859872 -0.07186149 0.013277316 0.08062654 -0.004499105 0.13906932
0.124575466 0.17354704 0.22340706 -0.060479864 -0.22555123 -0.13885337 -0.23416385 -0.07149878
0.18207435 -0.15059577 -0.2569987 -0.23330015 0.0038440726 0.0472219 0.3460137 0.12086005
0.16029908 -0.10160876 0.10031026 0.26658124 -0.37911436 -0.29675964 -0.015781151 0.23508252
00000000: 81c1 8bbe 45a0 79be d818 4ebe 1819 24be
00000010: 7d3f e4bd c8a7 273c 5d51 14be 547e 57be
00000020: 373e 703d d52a 8b3c dd0e 813e 3c17 873d
00000030: 9285 623b e485 ec3d d9d0 05bd 331e 3c3e
00000040: afc3 833e eb54 623e bd4f ecbd 689c 5abd
00000050: 0a46 1dbe d798 ad3d b3bf 82bd 7728 633e
00000060: e350 7d3e 5345 acbd 56ac 86bd e891 78be
00000070: bf8f 6dbe 479d 4bbe bced 9fbd 0a1e 31be
00000080: 77dc 70bd 166f 5bbd 088d b0bd 0f59 35be
00000090: 5514 e6bd 06a7 ebbd 9964 87bd aa3f 32bd
000000a0: 0ef7 053e a856 bd3d 5453 cfbb 13df 8c3e
000000b0: 7dc7 183d 6c9b 8d3d d5d6 3e3e 2a6b 8d3e
000000c0: 2726 d13c 7044 433e 18ef 3fbd e3f6 6abe
000000d0: 62a8 0cbe 0e99 c43e 96c0 533d 0a03 2a3e
000000e0: 1574 debd ce6b 15be 93f0 e63e 0eb4 eb3e
000000f0: aa3b 683e 2cad 663e bc6d 34be 6e6b 283e
00000100: 17ca f13e 9c4a 6cbe bcd5 cabd 1d57 93be
00000110: 8c27 12be 9ec9 543e b308 89bd 744e a9be
00000120: d7d4 edbe a3fe bdbe 95f6 bdbd 48dd 903e
00000130: 5f00 5abe f3fe 93be a8f2 28be 5bc7 51be
00000140: b6f8 873e 74ab 063e d985 07be 3fcd 81be
00000150: 052c cdbe a189 563e 2510 043f c468 9a3e
00000160: 2bf0 4cbd 193a a83d b7d5 15be caec a63e
00000170: 2995 003f 03b8 60bc 35d9 a83c 7b54 69be
00000180: 251b babd da1b 8b3e ea9c 863e 2f2e 0bbe
00000190: 4f62 7a3e eb24 01be 7881 37be 0748 87bd
000001a0: c903 353e fcc3 b8bd bd11 e6be c4bd 0fbe
000001b0: eda7 b73e 5d84 ad3e 9307 75be 5145 143e
000001c0: c209 363f 4de5 fd3e 0005 a7bc 59db bd3d
000001d0: 60e6 cb3e 74e3 9b3e c633 aabe 268c 1bbf
000001e0: 5e3f f33d 300a b2bd e690 bebe 6fcc 5abe
000001f0: 82ad b7bd 1818 f2bd 677c 86be 2471 ebbe
00000200: f22d 153d 4fe9 343e a448 93be 2f6e 90be
00000210: f6a7 aabe 7f2e 303e 11ac 013f 2e53 eabe
00000220: b561 6fbe 3c0d cf3d 9a3a ce3e 07fc c23e
00000230: 95b8 b0be 1936 3abe 0cb1 c53e f31e f63e
00000240: ec89 21bd 8983 8ebc e7de cebd 552f 8e3e
00000250: f72e 723e e983 963c a674 383d aa3c d23d
00000260: f66d 63be 8ba5 263e cfb5 563e 47e0 0b3e
00000270: de0f d8bc 5e3d 95be ec60 ad3e 398d 0b3d
00000280: 927e 6ebe 9370 90be bb7f 79bd 858d d23e
00000290: 61e6 28be 17d6 78be fc23 843d 6798 f33e
000002a0: 409a 8d3e e087 e8bd ec62 2f3e 7161 693e
000002b0: 8415 ec3d bbe6 7dbe b18c 54be d752 b13d
000002c0: eff0 25be 2cf9 d93d 27f1 6fbe 7117 00be
000002d0: 2c7a 56be c824 bbbe 3c78 a6be 8db1 6fbd
000002e0: e690 54be 53a4 f7bd b909 9e3c fab5 473d
000002f0: edbe ee3d ffe8 103e f081 d43e e0dc e33e
00000300: aa43 fc3e c115 e03e c4ad bf3e c931 cc3d
00000310: bcb2 6abd 2626 94be c36d 9cbe 82da 39be
00000320: 9685 cd3d 81cf 343e 77dc 97be c773 83be
00000330: 51a1 223e d591 313e e41d 383d cae8 b6bd
00000340: 8c36 2cbe 0427 d43d e220 8e3e 847b fc3d
00000350: d1ff 7fbe 811a 9dbe 5b03 1f3d 23e1 e73d
00000360: 01e7 bd3e f587 2abd f327 ed3d aa40 51be
00000370: 2f94 52be b986 763e 7f18 4bbd 0a93 373e
00000380: 98d8 0cbe cb69 19be 8a6b ec3c 1e2c 93bd
00000390: 1989 593c 871f a53d 3a6d 93bb 3068 0e3e
000003a0: 6c21 ff3d 51b6 313e d2c4 643e bcb9 77bd
000003b0: e7f6 66be 942f 0ebe a6c8 6fbe f46d 92bd
000003c0: b371 3a3e c735 1abe 5595 83be 3ce6 6ebe
000003d0: d6ec 7b3b c06b 413d b528 b13e 7985 f73d
000003e0: 7125 243e 4118 d0bd 776f cd3d 567d 883e
000003f0: 471b c2be e1f0 97be 7947 81bc 79b9 703e

cnn1.bias f4 [16]
-0.11878268 -0.12997505 0.0003111388 0.043778706 0.09616111 -0.20580871 0.05678578 0.03945641
0.03772285 -0.062234614 0.09750203 -0.21014763 0.010856446 0.03875242 -0.04895707 0.04495974
00000000: 5544 f3bd 2e18 05be 5820 a339 4d51 333d
00000010: 1ef0 c43d 85bf 52be 3598 683d 0b9d 213d
00000020: 4683 1a3d b9e9 7ebd 25af c73d f130 57be
00000030: 3cdf 313c dcba 1e3d 3587 48bd b427 383d

cnn2.weight f4 [32, 16, 5, 5]
-0.00812987 0.05509898 0.019028056 -0.040169757 -0.030632883 -0.026021648 -0.012543857 0.046304166
-0.057159454 -0.049619474 -0.046290174 -0.07810281 0.00029986887 0.05244423 -0.03649561 0.018604357
-0.027914125 -0.035491407 0.026022421 -0.009119106 -0.013541993 -0.0056622867 -0.03808539 -0.045076426
-0.04530217 -0.033570692 0.016666539 -0.07305689 -0.035099424 -0.0138813015 -0.05487557 -0.0077352347
0.026765797 -0.020583736 0.012150328 0.0045730453 -0.06785448 -0.07317186 -0.08458238 -0.02372378
0.04960533 -0.009997286 -0.05326041 -0.02716352 -0.053174183 0.07209836 0.050686873 -0.056247603
-0.07876855 -0.041193966 -0.06561031 -0.05257804 0.0878839 0.095032565 -0.041458122 0.0969605
-0.069930114 -0.044450507 -0.0060647787 -0.029697891 0.107638575 0.022831816 -0.04826185 -0.051223155
-0.052303746 0.018919509 -0.010649355 0.09662909 0.06816262 -0.054269906 -0.009227238 -0.039468706
0.12348137 0.035824325 0.009739554 0.0717787 0.045643166 -0.12898587 -0.049705148 0.015836645
0.009864491 0.088858 0.099426545 -0.011449152 0.013017737 -0.0696195 0.09030185 0.2003148
0.09668142 0.061575804 -0.08590179 -0.06577284 0.08034706 0.10826882 -0.023645667 -0.063812405
-0.05714553 -0.06264192 0.011124363 0.05998347 -0.069359414 0.037436794 0.12278183 0.035533708
0.039930567 -0.025678074 -0.071164705 -0.06955964 0.01918347 -0.004897066 -0.11585809 -0.12129668
-0.07937566 -0.023776313 -0.03225312 -0.02358943 0.0021084505 -0.039992142 0.015904209 0.005871974
0.03128421 0.18963099 0.06344958 -0.0022094566 -0.0013655799 -0.08920388 -0.003043803 0.03618608
-0.043917328 -0.029656159 -0.009364375 -0.058661364 -0.008330292 -0.014893254 -0.034579348 0.002547829
-0.10754946 -0.11892907 -0.10852449 -0.021880854 0.03417946 0.024602167 -0.012727846 -0.08520645
-0.045021024 0.08487916 -0.011516733 -0.008215985 -0.029614395 -0.05788645 0.019662581 -0.0025914758
0.029345755 0.040172238 0.012482815 0.047697295 -0.0378662 -0.040072642 0.0835185 0.046562143
0.0016934543 -0.011856729 -0.045916617 -0.0520602 0.023100907 0.07209681 0.10321379 0.038877152
-0.043427803 0.043667305 0.017734766 0.076671764 0.07657735 -0.04796173 -0.043121908 -0.026289407
0.056549776 -0.058167513 -0.046812586 -0.046539955 0.051759772 -0.03979434 -0.06906596 -0.009828131
0.011606733 -0.06705692 -0.093231864 -0.046704225 0.054074954 -0.00038549153 -0.015653115 -0.06603364
-0.08290236 -0.084583975 0.0034753557 0.1051348 -0.0027030366 -0.017009804 -0.06758953 0.009506379
0.06366566 0.058782768 -0.07857381 -0.025264774 0.017904008 -0.037110336 0.037705246 0.12464059
-0.008094893 -0.033589557 -0.05269109 0.019112252 0.098418035 -0.023965236 0.0783516 -0.0020725133
-0.034631807 -0.0026000964 0.023085587 -0.009604391 -0.04889264 -0.03822576 0.001428921 -0.027919073
0.072654575 -0.014209183 0.06452125 0.07229758 -0.028378503 0.011814025 0.0020535833 -0.019797854
0.044662345 0.056766532 -0.022525785 -0.019933958 -0.043967888 -0.031182097 0.020773739 -0.057992794
-0.0127117615 -0.008205239 -0.02282643 -0.03041149 0.009633031 -0.033092484 0.027650926 -0.051364202
-0.05813169 -0.026597919 0.03349664 0.05791446 -0.038073547 -0.094513424 0.05564781 -0.052137498
00000000: 2533 05bc 78af 613d bae0 9b3c 0b89 24bd
00000010: d0f1 fabc 5a2b d5bc c084 4dbc 70a9 3d3d
00000020: 0820 6abd ca3d 4bbd c49a 3dbd 5ef4 9fbd
00000030: b837 9d39 c3cf 563d 6c7c 15bd 2a68 983c
00000040: 2aac e4bc 705f 11bd f92c d53c 4e68 15bc
00000050: 3cdf 5dbc b48a b9bb 6dff 1bbd 0fa2 38bd
00000060: c58e 39bd 6c81 09bd 4488 883c da9e 95bd
00000070: 6ac4 0fbd 666e 63bc 35c5 60bd da77 fdbb
00000080: f243 db3c 399f a8bc 2b12 473c 7cd9 953b
00000090: 4af7 8abd 21db 95bd 8739 adbd 5f58 c2bc
000000a0: f52e 4b3d a8cb 23bc 9627 5abd 0886 debc
000000b0: 2ccd 59bd 4ea8 933d 0a9d 4f3d e363 66bd
000000c0: 6851 a1bd 01bb 28bd b35e 86bd 125c 57bd
000000d0: 79fc b33d 6fa0 c23d fecf 29bd 3a93 c63d
000000e0: 8537 8fbd bc11 36bd 0dbb c6bb fe48 f3bc
000000f0: 9d71 dc3d ca09 bb3c 38ae 45bd 5fcf 51bd
00000100: 743c 56bd 16fd 9a3c a27a 2ebc 79e5 c53d
00000110: d898 8b3d 1f4a 5ebd d72d 17bc f0a9 21bd
00000120: cde3 fc3d 87bc 123d a692 1f3c b600 933d
00000130: 54f4 3a3d df14 04be a097 4bbd dabb 813c
00000140: ad9e 213c 2ffb b53d 25a0 cb3d 3995 3bbc
00000150: 5948 553c ab94 8ebd 2df0 b83d 531f 4d3e
00000160: e900 c63d e936 7c3d 47ed afbd e9b3 86bd
00000170: 008d a43d 0bbc dd3d 8fb4 c1bc 14b0 82bd
00000180: 6e11 6abd 684a 80bd f642 363c 3ab1 753d
00000190: 4f0c 8ebd 5357 193d 0a75 fb3d cb8b 113d
000001a0: 3c8e 233d d35a d2bc cdbe 91bd 4975 8ebd
000001b0: a726 9d3c 9177 a0bb 0247 edbd 656a f8bd
000001c0: b58f a2bd 8bc6 c2bc d91b 04bd 9f3e c1bc
000001d0: ee2d 0a3b cdce 23bd 8b49 823c b069 c03b
000001e0: df23 003d a02e 423e daf1 813d 88cc 10bb
000001f0: 42fd b2ba 86b0 b6bd 8a7a 47bb db37 143d
00000200: a8e2 33bd 79f1 f2bc 096d 19bc e646 70bd
00000210: c77b 08bc d602 74bc 13a3 0dbd 7af9 263b
00000220: e442 dcbd 1691 f3bd 1642 debd 7a3f b3bc
00000230: c3ff 0b3d 7c8a c93c 7588 50bc b880 aebd
00000240: f767 38bd 20d5 ad3d aeb0 3cbc 579c 06bc
00000250: e399 f2bc 581a 6dbd 6c13 a13c c0d5 29bb
00000260: 8266 f03c a58b 243d b984 4c3c 3d5e 433d
00000270: 9719 1bbd 3623 24bd bf0b ab3d f2b7 3e3d
00000280: e6f6 dd3a ba42 42bc 1013 3cbd 143d 55bd
00000290: 1d3e bd3c 7ea7 933d c061 d33d a63d 1f3d
000002a0: 5ae1 31bd 7ddc 323d 8048 913c 1606 9d3d
000002b0: 96d4 9c3d 8573 44bd 99a0 30bd e25c d7bc
000002c0: bda0 673d 0f41 6ebd 8ebe 3fbd aea0 3ebd
000002d0: 0e02 543d 64ff 22bd 7472 8dbd 2b06 21bc
000002e0: 2b2a 3e3c 2355 89bd 59f0 bebd ee4c 3fbd
000002f0: b37d 5d3d cc1b cab9 f63a 80bc a53c 87bd
00000300: b6c8 a9bd 5d3a adbd cbc2 633b ea50 d73d
00000310: 6e25 31bb 2558 8bbc 616c 8abd a5c0 1b3c
00000320: 2463 823d 33c6 703d 4eeb a0bd 12f8 cebc
00000330: 6dab 923c 0201 18bd d170 1a3d 9143 ff3d
00000340: 71a0 04bc 3495 09bd 9dd2 57bd 4c91 9c3c
00000350: 658f c93d be52 c4bc ce76 a03d 01d3 07bb
00000360: 15da 0dbd 6166 2abb fc1d bd3c bc5b 1dbc
00000370: a643 48bd 9d92 1cbd a24a bb3a 8ab6 e4bc
00000380: eccb 943d a2cd 68bc b823 843d c110 943d
00000390: 097a e8bc 9d8f 413c 6995 063b 1c2f a2bc
000003a0: ddef 363d 0684 683d ff87 b8bc 8a4c a3bc
000003b0: ac17 34bd 9971 ffbc b02d aa3c da89 6dbd
000003c0: fe44 50bc 446f 06bc 7efe babc 8421 f9bc
000003d0: dcd3 1d3c fc8b 07bd 3284 e23c 4563 52bd
000003e0: 7f1b 6ebd e1e3 d9bc c633 093d b637 6d3d
000003f0: 02f3 1bbd 4190 c1bd f5ee 633d 218e 55bd

cnn2.bias f4 [32]
-0.02960221 -0.061765473 0.005231474 0.0073440857 -0.0138580445 0.018544085 0.029466985 0.037074305
0.047062557 0.009615617 -0.047921706 -0.03821568 -0.0066461395 0.0066665797 -0.08608449 0.009863803
-0.034767866 -0.009334923 -0.02333798 0.020784164 -0.050806057 -0.050330788 -0.004583718 -0.021346359
-0.00831115 3.2226148e-05 -0.021358032 -0.047349077 -0.020319654 0.017378839 -0.043968085 -0.06430982
00000000: 5580 f2bc cbfd 7cbd c96c ab3b a8a6 f03b
00000010: da0c 63bc c4e9 973c bf64 f13c 3adb 173d
00000020: abc4 403d d28a 1d3c 8d49 44bd 0b88 1cbd
00000030: dcc7 d9bb 5373 da3b 114d b0bd ca9b 213c
00000040: c068 0ebd 81f1 18bc 4b2f bfbc 8d43 aa3c
00000050: 031a 50bd a827 4ebd 0333 96bb 8fde aebc
00000060: 7d2b 08bc 902a 0738 0af7 aebc 1bf1 41bd
00000070: 6775 a6bc 115e 8e3c e117 34bd deb4 83bd

fc1.weight f4 [10, 512]
-0.04748417 -0.036954585 0.09907294 0.13417211 -0.019294765 -0.11782377 -0.01506774 0.139422
0.056145903 0.04159139 -0.039727174 -0.05633495 -0.0032926938 0.08925619 0.03802883 -0.18113285
0.00026641044 -0.08530036 0.015645474 0.00047158592 -0.05047032 0.04196371 0.058144495 0.11290265
0.035895858 -0.012030463 0.15148695 -0.016278407 -0.024946436 0.09225402 0.05303593 -0.104280815
0.010455623 0.07745823 -0.044148277 -0.11180312 0.038928486 -0.05278452 -0.08252557 -0.1806126
0.07595088 0.042408165 -0.021194754 -0.1433471 0.08528876 -0.006939061 -0.01562864 -0.03829755
-0.027163403 -0.0809206 -0.038802437 0.0941993 -0.2285475 -0.015758643 0.16385074 0.054405116
-0.21402664 -0.030746697 0.08869174 0.07083072 -0.18211088 -0.0040155677 0.11429115 0.11192661
-0.08632002 -0.09381677 0.017081348 0.015106523 0.0656976 0.015915101 -0.016582392 0.10406383
0.11020358 0.029943174 -0.015310012 0.050646998 0.0898426 0.08078511 -0.051301084 -0.056895602
0.017420292 0.029455658 -0.083277546 -0.029459149 -0.026605593 -0.1463212 -0.370822 -0.05752813
0.044279207 -0.072884806 -0.016270284 -0.06755083 0.037624177 0.06504572 0.10891812 0.045199532
-0.009383146 0.07333427 0.021797061 -0.08568908 -0.010189422 -0.023859523 -0.054173663 0.038728114
0.025331026 -0.020828415 0.1057243 0.14907202 -0.03644025 -0.062390387 0.07827395 0.0674534
0.13119942 0.22002253 0.017181052 -0.07553222 0.07619935 -0.06729593 -0.084178425 -0.035262555
-0.069317035 -0.15976223 0.000920707 -0.07664135 -0.124078855 -0.013106701 0.025401138 0.017742563
0.10101376 0.06480105 0.115652904 -0.02507866 -0.031778526 0.015219427 -0.101343624 -0.14317963
-0.041509222 -0.04023421 0.027697071 -0.13587233 0.046774313 0.026306452 -0.047943342 0.08046094
0.010246404 0.008072308 -0.009855704 0.0048445575 -0.03304672 -0.06579572 -0.04508324 -0.09769384
-0.26665416 0.011458321 -0.057954747 -0.043344364 -0.018846093 0.12532134 0.058358405 0.09426722
-0.018032625 -0.06055254 -0.009547809 -0.058332052 0.0004013683 0.08771357 -0.08895431 -0.06803771
-0.017730797 -0.1087705 -0.11523871 -0.2315362 0.084646605 0.079597965 0.045982737 0.10192206
0.022889018 0.013580266 -0.099167965 0.060180716 0.07577913 0.008420122 -0.08945245 -0.05322634
0.15043554 -0.13738827 -0.04912 0.0188665 -0.0017356419 -0.20586683 -0.14465775 -0.055457413
0.011292684 -0.06387475 -0.051819652 0.0007217164 -0.020640746 0.042890683 -0.058450427 0.00505371
0.13020343 0.10827151 -0.08719004 0.037047505 0.122090854 0.051740177 -0.033013046 0.048168257
-0.0032172482 -0.04398472 -0.022044398 0.03465251 0.03918362 -0.16148601 -0.0065068454 -0.0037338417
0.0112688225 -0.07063983 -0.047324527 -0.008084194 -0.016830333 0.017149184 -0.0030240992 0.050760735
0.0036281673 -0.11505585 -0.075122304 0.07056213 0.010029132 -0.08538082 -0.03378405 0.034533296
-0.003328963 -0.15088812 -0.16904728 0.17645481 0.01028063 -0.16456501 -0.13353889 -0.035985835
0.02089107 0.02995834 -0.011678094 -0.037342783 -0.058877088 0.0032017874 -0.03348494 -0.016225751
0.028417382 -0.028769478 -0.009387192 -0.012725627 -0.0006029685 -0.01716393 -0.044689726 -0.05264608
00000000: c37e 42bd b15d 17bd c1e6 ca3d 6a64 093e
00000010: 0e10 9ebc 974d f1bd afde 76bc a4c4 0e3e
00000020: 3ff9 653d bc5b 2a3d f6b8 22bd 7abf 66bd
00000030: 3cca 57bb f3cb b63d 1ec4 1b3d e47a 39be
00000040: 01ad 8b39 f5b1 aebd f02a 803c 313f f739
00000050: f7b9 4ebd 24e2 2b3d ec28 6e3d 8139 e73d
00000060: 8907 133d 6b1b 45bc 651f 1b3e 4b5a 85bc
00000070: 785c ccbc adef bc3d 343c 593d 2e91 d5bd
00000080: 104e 2b3c 6ca2 9e3d d3d4 34bd 09f9 e4bd
00000090: 7a73 1f3d 9534 58bd 2b03 a9bd 82f2 38be
000000a0: 238c 9b3d 2fb4 2d3d 9fa0 adbc 95c9 12be
000000b0: e0ab ae3d 1061 e3bb a207 80bc e4dd 1cbd
000000c0: c985 debc b3b9 a5bd 4eef 1ebd 90eb c03d
000000d0: 5b08 6abe 4518 81bc 7dc8 273e e6d7 5e3d
000000e0: cd29 5bbe 7fe0 fbbc 04a4 b53d b20f 913d
000000f0: 467b 3abe 0695 83bb 7a11 ea3d c739 e53d
00000100: 8dc8 b0bd 0223 c0bd 2fee 8b3c 5a81 773c
00000110: 778c 863d 6360 823c ccd7 87bc 6b1f d53d
00000120: 6ab2 e13d 634b f53c d8d6 7abc 3a73 4f3d
00000130: 66ff b73d aa72 a53d 1621 52bd 5d0b 69bd
00000140: 00b5 8e3c fe4c f13c 6b8d aabd 5054 f1bc
00000150: f9f3 d9bc 3ad5 15be 62dc bdbe 9ea2 6bbd
00000160: 1d5e 353d a144 95bd 4249 85bc 1758 8abd
00000170: cf1b 1a3d b136 853d 7710 df3d 2523 393d
00000180: c4bb 19bc 4730 963d c08f b23c c27d afbd
00000190: 89f1 26bc 0c75 c3bc 34e5 5dbd 5fa1 1e3d
000001a0: 0383 cf3c 5aa0 aabc fb85 d83d 56a6 183e
000001b0: 5f42 15bd 108d 7fbd 184e a03d 0225 8a3d
000001c0: 2459 063e 964d 613e 47bf 8c3c a3b0 9abd
000001d0: 680e 9c3d 73d2 89bd bd65 acbd 786f 10bd
000001e0: 17f6 8dbd b698 23be 9a5b 713a 24f6 9cbd
000001f0: 0e1d febd 7dbd 56bc 0c16 d03c da58 913c
00000200: 4de0 ce3d 6ab6 843d 6edb ec3d c371 cdbc
00000210: 332a 02bd e75a 793c 3f8d cfbd ae9d 12be
00000220: 9305 2abd a1cc 24bd f8e4 e23c 1e22 0bbe
00000230: 6c96 3f3d a180 d73c 3d60 44bd b5c8 a43d
00000240: 89e0 273c b741 043c d279 21bc 18bf 9e3b
00000250: ff5b 07bd e8bf 86bd 34a9 38bd b513 c8bd
00000260: e586 88be aebb 3b3c f561 6dbd dc89 31bd
00000270: 1f63 9abc 3d54 003e 3909 6f3d 2c0f c13d
00000280: 28b9 93bc f105 78bd 6a6e 1cbc 97ed 6ebd
00000290: be6e d239 2ca3 b33d ad2d b6bd 5b57 8bbd
000002a0: 2d40 91bc 11c3 debd 4602 ecbd d317 6dbe
000002b0: 335b ad3d 4204 a33d 6558 3c3d 83bc d03d
000002c0: c081 bb3c c47f 5e3c 9318 cbbd 0e80 763d
000002d0: 1732 9b3d 8df4 093c d932 b7bd dd03 5abd
000002e0: c60b 1a3e 83af 0cbe 0e32 49bd eb8d 9a3c
000002f0: 7a7e e3ba c1ce 52be 2921 14be 5027 63bd
00000300: f304 393c c4d0 82bd d840 54bd 9131 3d3a
00000310: c816 a9bc 24ae 2f3d b769 6fbd 9899 a53b
00000320: 0c54 053e 74bd dd3d b190 b2bd 20bf 173d
00000330: c50a fa3d 82ed 533d b038 07bd 144c 453d
00000340: 78d8 52bb 5229 34bd 7496 b4bc caef 0d3d
00000350: 017f 203d 975c 25be 6037 d5bb 78b3 74bb
00000360: dea0 383c 9dab 90bd 5dd7 41bd 9173 04bc
00000370: c4df 89bc 727c 8c3c f72f 46bb 7dea 4f3d
00000380: 8cc6 6d3b 67a2 ebbd b9d9 99bd e182 903d
00000390: 3a51 243c 24dc aebd 2561 0abd c972 0d3d
000003a0: bb2a 5abb 6a82 1abe bb1a 2dbe 92b0 343e
000003b0: 1670 283c bb83 28be 6bbe 08be e265 13bd
000003c0: c023 ab3c 316b f53c 7a55 3fbc bff4 18bd
000003d0: 1a29 71bd 14d5 513b 8127 09bd deeb 84bc
000003e0: 92cb e83c f8ad ebbc bdcc 19bc 267f 50bc
000003f0: 8810 1eba 5f9b 8cbc 930c 37bd 6aa3 57bd

fc1.bias f4 [10]
0.03800429 0.11624493 -0.06704099 -0.011514286 0.018776212 -0.025877697 -0.054321807 -0.007954573
0.05223432 0.024169298
00000000: 63aa 1b3d d211 ee3d c94c 89bd 6aa6 3cbc
00000010: 92d0 993c 77fd d3bc 8b80 5ebd e653 02bc
00000020: a8f3 553d b1fe c53c
